…
fication layer 4: output label probability cnn_model.add(Dense(1, activation=&#39;sigmoid&#39;, name = &#39;Output_label_probability&#39;)) # configure the model cnn_model.compile(loss=&#39;binary_crossentropy&#39;, metrics=[&#39;accuracy&#39;]) . What is the number of parameters in the above CNN architecture. And compare the model size with the FCNN model size . cnn_model.summary() . Model: &#34;sequential_1&#34; _________________________________________________________________ Layer (type) Output Shape Param # ================================================================= conv2d (Conv2D) (None, 57, 57, 4) 260 max_pooling2d (MaxPooling2D (None, 14, 14, 4) 0 ) flatten (Flatten) (None, 784) 0 Relu_Non_linear (Dense) (None, 4) 3140 Output_label_probability (D (None, 1) 5 ense) ================================================================= Total params: 3,405 Trainable params: 3,405 Non-trainable params: 0 _________________________________________________________________ . Compare the CNN model size with the FCNN model size . FCNN Model total parameters = 16,393. . Let&#39;s interpret this parameter size. For each face image with (64 x 64 x 1) pixels in graysca
…
